cparam_S1_1.npy (npy, 18072 bytes, 1 tensors)

array f8 [2249]
00000000: 8caf 7cf5 0f38 c9bf e21a e75c 7029 c3bf
00000010: fae7 f7fc e99b c3bf 58a0 7f88 3a83 963f
00000020: 8805 c1c8 717a c9bf e072 0415 2055 c13f
00000030: 2898 ac8f a559 90bf 402f 0007 a438 9c3f
00000040: cd3b 111c fd7e b7bf 8085 0984 d7fa a83f
00000050: acb6 669c f6b4 c63f a4f1 6ca5 f0ac c13f
00000060: 00e0 7f6f b298 06bf 34ec b53f 8b79 bbbf
00000070: 1474 c64b 64b4 b63f 065a e3c7 5efe c23f
00000080: 006a 28d2 ec5a b1bf a0f3 c971 7787 c9bf
00000090: 28d9 ce40 c81c 95bf bae8 3aad cdc3 c2bf
000000a0: c049 03cf 401b c93f a88b a20a e0b1 9b3f
000000b0: 90b7 c395 f078 ae3f 5a46 9405 cf5a c63f
000000c0: 90c1 ccb3 ef39 b03f 6024 8481 dc8a c53f
000000d0: c489 5038 76c9 b33f 4045 922d 5920 a53f
000000e0: 8406 86d6 e88a c0bf dd31 f3b7 e1e5 b3bf
000000f0: 38b2 89fc d887 a0bf c89f f404 23ce c0bf
00000100: c549 897e da43 c9bf b02f b36c 835a 813f
00000110: e4f8 49c3 0d3b c33f 9858 c022 d296 b13f
00000120: 60a1 3f76 2df6 a13f 30a1 556f 52ee c6bf
00000130: 77f2 1fd6 2d3f b9bf 67f7 b9e7 629f bfbf
00000140: 54f7 58d6 d717 c13f a031 7293 c55f a9bf
00000150: 58ff c52a 5d8a aa3f d2e3 a586 af5d c13f
00000160: c456 431d b23e b2bf 3042 396c 3ca7 933f
00000170: d0e3 c2e2 4c58 9ebf 40fc 1bc5 cb67 9f3f
00000180: 36cf 4de1 7583 c43f 4d8c c0ca 71d7 c7bf
00000190: 3045 c272 a066 af3f 1838 ade5 72a2 a13f
000001a0: b714 f10f 9cc2 c1bf b433 3103 ed30 b63f
000001b0: 2c05 1a88 b1d2 acbf b085 6854 c6e3 af3f
000001c0: 0624 a859 91ea c43f ec45 1792 e5ad c73f
000001d0: 7549 c290 05ca c4bf 00a5 26e3 cacd 5b3f
000001e0: c009 f59c 114f c0bf 7e8c 6f0c ca89 c03f
000001f0: d429 4c92 a0d4 bb3f 1c06 9a6f e2f6 bd3f
00000200: cd44 66bc f634 bbbf 30a4 13dd 478b 9dbf
00000210: 98d0 199a ca30 983f 60df e07d 11f7 88bf
00000220: d02e bf5b f54b 953f 4dec 3dbd 8cb6 b7bf
00000230: fe2b 9b17 2027 c93f dc87 4162 878d c9bf
00000240: 60b7 9195 f38d 863f 547f e990 e128 bbbf
00000250: 7897 df51 f7b7 c63f e715 5ee2 824a c9bf
00000260: 9476 30fd c1d5 a23f 77cf 8497 7bb8 c1bf
00000270: 9a65 32d4 7882 c43f 6c2f 9dec a668 c23f
00000280: c8e5 e0d2 d5cf c83f b4bb c026 e62a c7bf
00000290: 8007 bdf6 b1c9 c0bf 4264 1ede 1325 c93f
000002a0: b848 7731 d980 c9bf 4041 7b67 f99f b53f
000002b0: a039 5134 ab2c 7c3f de69 0759 7676 c73f
000002c0: 88c0 ec24 c5ae b83f 9da8 f0e3 ed79 bdbf
000002d0: b404 d199 c9b6 c53f c0f0 65d7 65b0 97bf
000002e0: 80b5 f4c9 9480 5bbf fa61 85e4 0760 c5bf
000002f0: 4487 e404 056e bd3f 98c1 cb89 1e78 993f
00000300: ca66 652b f469 c6bf c00f c043 a66f aebf
00000310: d8ca 2892 64d8 b73f 008b b42f 4c61 873f
00000320: 7e96 f612 1722 c83f 96f9 574f ee59 c23f
00000330: 28b5 43a0 5940 c5bf e623 ab50 b4b6 c43f
00000340: 6ab8 72ac 33ef c33f 806a ac54 3fc1 c33f
00000350: 9071 dfe9 850a bf3f 0cd7 2756 217f bf3f
00000360: 38c4 53fc 8ce4 af3f 6008 7400 aa8e bfbf
00000370: 3f6a 0791 b3c1 c4bf dfa3 a7f8 0413 c7bf
00000380: 2c38 efe5 d5ad c1bf 0622 bab9 6fae c13f
00000390: 15d9 2ee4 d8e0 c1bf 400c 2a8f a848 773f
000003a0: 2007 4990 ff97 ba3f c47c e757 323d c73f
000003b0: ff34 fef9 bd95 c6bf a83b 1162 20d9 c63f
000003c0: 3066 4d94 7f0f b43f 3097 0f35 0117 b8bf
000003d0: 504a e926 1dbe af3f b8d0 3925 4892 c2bf
000003e0: 40e5 0f0e d064 95bf 800b b76e 7073 b23f
000003f0: e8ec 890f 9a24 b13f 60f3 45e2 7876 a5bf
00000400: 687f c8e3 fef4 ba3f 60b7 a475 b164 ac3f
00000410: b280 41a4 e457 c03f 9cb4 4746 f0a2 b83f
00000420: f076 07ac a206 c93f 40ba 1f85 9688 923f
00000430: fadc 5ea1 3216 c3bf f693 5587 c48a b0bf
00000440: bc7c e1a7 c9e1 bf3f 1862 8927 1d37 a6bf
00000450: 2a8c 2768 b3e9 b0bf 401c 8404 b4a4 7bbf
00000460: 7288 6813 5613 c73f 803c efb2 f6ec 973f
00000470: 5cc9 f281 71ee c5bf 9857 f11a 647e 983f
00000480: 005a f348 6848 79bf 9c6a a2e4 d4ee bd3f
00000490: 2413 6043 0a7d c03f 6c21 c4e8 e2f4 be3f
000004a0: 6417 6a16 8693 c9bf 6242 33ea 0198 c6bf
000004b0: 6459 79da 933a c03f 5468 0d78 1356 c1bf
000004c0: 52f4 d267 78e8 c0bf 80f8 2b67 d166 abbf
000004d0: bc68 21e1 c533 acbf 001f 74ef abc8 babf
000004e0: f0f7 9718 d144 9d3f 7cf1 ae02 e211 b13f
000004f0: 6042 ed4b 33b9 8fbf 95c1 b359 2f87 c8bf
00000500: c238 de48 0420 c43f 02ec 7441 33d9 c6bf
00000510: dc9f c8d3 3d0d bf3f 60e4 242b 586c 7bbf
00000520: 5c3c 0e98 8716 c43f b72c e185 6779 b4bf
00000530: 974e 95d8 923d b9bf c23b 5888 741f c2bf
00000540: 446e dfc5 703b bfbf a4c6 dbc1 a1c1 b73f
00000550: 67f1 f59f c01b bebf 8d8f 2fa0 0571 c5bf
00000560: dafa 939c 0063 c83f bd97 6e14 e593 c1bf
00000570: 443f 4bb3 ef21 bb3f 64ed 4539 d23a c93f
00000580: 000f 260e de72 c03f b050 c353 dde7 bfbf
00000590: 8da4 d497 b175 bdbf 90cf f4ff 5372 bbbf
000005a0: e0d3 9b13 e9f0 c43f 40e4 0a67 b962 c13f
000005b0: 2e2f d56e a808 c03f d0c9 57f9 b277 b7bf
000005c0: 086c 0398 bd13 a8bf 94ac 2b3b a355 c33f
000005d0: 9862 67d1 8f60 c13f be02 36b1 cfe7 c83f
000005e0: 0dc5 decc c5f0 c5bf 8d10 0af8 2dae b7bf
000005f0: 3e33 ad9f 134c c83f 249f 120f 5012 b1bf
00000600: eec3 423d b370 c43f 6e65 b945 d55a c23f
00000610: f4b8 e9ea 73ee c23f 6037 fc88 71a8 c6bf
00000620: 0016 abae 93c9 ba3f ed5b 3a4a 1770 c5bf
00000630: 80fd 417e ca61 a23f 90e5 e93f 131d ac3f
00000640: 8029 be30 fe75 a33f ea2d 0ccc 1c0e c5bf
00000650: c41d 7f8b 079a c6bf 3078 f900 ccf9 8abf
00000660: 4630 f283 112b c33f 887e 954a 5309 b63f
00000670: f4de 9e2b b2a9 b83f 403b d717 6392 67bf
00000680: 1d23 b326 5df9 c4bf 8061 1253 bc4e 593f
00000690: c0f2 ec74 5b19 6e3f 982d dc10 3635 95bf
000006a0: 4249 7fe5 74fd c13f 985a 1861 1bdb 9fbf
000006b0: f82d a27c 4d53 ac3f bcce 6601 6b89 afbf
000006c0: 0729 87e5 7be8 bcbf 00fd fe8b 3092 c7bf
000006d0: 5763 3f80 2343 b9bf 84d9 7b66 679d be3f
000006e0: 4819 f8bd 119a a83f 6521 d04f 1779 c3bf
000006f0: dadc 6531 6f99 c2bf ac47 3b59 e17f b93f
00000700: d8f1 e320 9590 a7bf 0076 d826 d156 393f
00000710: d06c 7949 cbd0 c0bf 1d73 5a87 394a c4bf
00000720: 37df d349 c74a c5bf f4fd 33d3 9ff6 aebf
00000730: 20a7 6747 6b3d c4bf f2a5 9143 f11b c13f
00000740: ca2c ff77 74d2 bcbf 5c29 0f1b 2a24 bf3f
00000750: 60d3 a72e ca0e b7bf 60a3 d079 a778 8cbf
00000760: 607d a1bf 091b b8bf 506b e49a 591a c0bf
00000770: d0ab 5a93 4bd4 943f 27b2 45cb 5827 bcbf
00000780: d5ca e5e2 67ac c2bf ee6f 3e5b 866a c63f
00000790: 6865 6f08 1d04 b73f 6025 123c ee04 8fbf
000007a0: 2e65 883f ef5b c73f 08fa 7e4d 9949 af3f
000007b0: 80f8 706c 26e6 ab3f fd3d a3c3 59a8 b4bf
000007c0: 00de 2384 95d2 7e3f 5777 0e65 ed9a b8bf
000007d0: f2bb 5ab7 495b c3bf b000 8164 2e51 92bf
000007e0: 40a1 162a 8adb 73bf ce52 9f23 0c52 c93f
000007f0: 54ef 65cd 7e4b b3bf 3817 b818 3105 a73f
-0.19702338682816067 -0.14970211540477069 -0.1531956181714234 0.021984972554406873 -0.19904920866433096 0.13541031862486985 -0.015966975111176535 0.027559817244806384
-0.09178144393193506 0.048788771503278205 0.1773975623777252 0.1380902106992724 -4.3099351330455615e-05 -0.10732336335597453 0.08869006013851816 0.1483877635971142
-0.06779365664298354 -0.19944661193940494 -0.02061760802799842 -0.14660044630529062 0.19614420040177372 0.02704572739515823 0.059516447336007805 0.17464626095220376
0.06338403834957362 0.1683002121356223 0.07729281306141106 0.04126242333689811 -0.12923918223173214 -0.07772646656957911 -0.03228643496263256 -0.13129079572649816
-0.19738322428254498 0.008473421816596133 0.15023967776864489 0.06870759342595745 0.035081310925138665 -0.17914801059965546 -0.09862028577476588 -0.12352579266913964
0.13354013410747234 -0.049558805702960784 0.05183688304077688 0.1356715590916609 -0.07126916136197808 0.01919264231247747 -0.02963371404686993 0.03066938772735406
0.1602618551365766 -0.18626234436041714 0.06132985497346011 0.03444251111669433 -0.13875151422886287 0.08668404891905263 -0.05629496370694151 0.06228465824484475
0.16340844037793562 0.18499440797181366 -0.16241521423632901 0.0016970139809962537 -0.12741298831867987 0.1292049942704558 0.10871318408695824 0.11704840874337957
-0.10627691363903864 -0.028851626270725628 0.023623624473160548 -0.012189995435718692 0.02079757091978146 -0.09262923832095389 0.19650651123660617 -0.19963161752372016
0.01101293850134838 -0.10609254634755177 0.1774891996166692 -0.19758640339948316 0.03678709235849201 -0.13844246767404986 0.1602316890828604 0.14381872704904752
0.19384262844850597 -0.18099667446355527 -0.13115524814389445 0.1964440187992143 -0.19924464145021203 0.08447226311114253 0.006878536955879616 0.18330268237225672
0.09641678000912368 -0.11514174284880814 0.16964073191232887 -0.023133841773856245 -0.0016786053673273071 -0.16699312837842212 0.1149600159592668 0.024872281227489162
-0.17510845297765903 -0.05944556786565114 0.09314564293235195 0.01141604919991357 0.18854034830035354 0.14336947321130528 -0.16602630925573547 0.1618256944550744
0.15573736114805864 0.15433494219253774 0.12125431976114087 0.12303360322388474 0.06229057865301296 -0.12327063094201796 -0.1621612985753291 -0.18026792661046806
-0.1381175396658717 0.13813587731080207 -0.13967429296253245 0.005684526857865413 0.10388180992688634 0.1815550736637076 -0.1764447661084105 0.17850117481654348
0.07836148615515337 -0.09410102410728594 0.06199732875815711 -0.14508916680973072 -0.020892382486612293 0.07207396224025153 0.0669647491394475 -0.041919496175046644
0.10530083714593064 0.05545572815968458 0.12768228550249244 0.09623624530623193 0.19551499748097667 0.018099166751136986 -0.14911492232724993 -0.06461742691097058
0.1245389971604593 -0.04338923556924018 -0.06606599133333249 -0.006748870080861613 0.18027759502098523 0.023364882155700872 -0.17133921475540148 0.023919643539862173
-0.006172568667543121 0.11692553121467103 0.12881592073258574 0.12092416937605827 -0.1998145684667022 -0.17651390014227092 0.12678764503170747 -0.1354393325989941
-0.13209443158658246 -0.05351881393834024 -0.055082496387244245 -0.10462450595889194 0.028582827688289514 0.06667912068855303 -0.015489960436441297 -0.19162551765431304
0.15722707326898983 -0.17850342460755547 0.12129579945087648 -0.006695122154547567 0.15693755077924976 -0.07997748392624514 -0.09859578883816265 -0.14158493668989364
-0.1220007403457482 0.09279833777307062 -0.11761096864024055 -0.16751165696689121 0.19052131314670967 -0.13732589242607487 0.1059865772942859 0.19710758015194607
0.12850547495701647 -0.12463172240251441 -0.11507711369326241 -0.1072132587331096 0.1636020036454786 0.1358253243577412 0.1252642193961661 -0.09167021357988081
-0.047025608831710086 0.15105095280828051 0.13575933193967127 0.19457431939010478 -0.1714102983801599 -0.09250151925704327 0.1898216752691954 -0.06668568008410297
0.15968933573961358 0.14339700607778688 0.14790200205192827 -0.1770154875634331 0.10463831915247823 -0.16748324512874949 0.035902336036993 0.05490932612606081
0.03800958962445389 -0.16449317897091414 -0.17657560645441894 -0.013171762256373482 0.14975184385946444 0.08607979365251073 0.09633935513454245 -0.002877419987931701
-0.16385998143803074 0.0015446509462773983 0.0036742006554092155 -0.02071079709916787 0.14054738241117987 -0.03110926418420465 0.05532304903416824 -0.06159529106244352
-0.11292242387495231 -0.18414885364288835 -0.09868070488972812 0.11958929302259064 0.04805045551261117 -0.15213290593261344 -0.1453074446869554 0.09960754803185407
-0.046024952187483315 0.00038664442294752965 -0.13137188994992366 -0.15851515873955516 -0.16634455780853738 -0.060475344211223275 -0.15812436091010174 0.13366523551239556
-0.11258628778084581 0.1216455761015473 -0.09006942404796581 -0.013902004628180087 -0.09416256836401748 -0.12580413878535035 0.020341091984544424 -0.10997538531018645
-0.14588640765176444 0.1751258798147996 0.08990651565490781 -0.015146123131006106 0.18249312021434022 0.06110838957782866 0.05449028085466612 -0.08069382692632839
0.007525047347591407 -0.09611400334548868 -0.15122338726857226 -0.017887806782028448 -0.004848041252820956 0.19781638850567734 -0.07537071718792038 0.04496148516413573
