data/cparam_S1_2.npy (npy, 18072 bytes, 1 tensors)

array f8 [2249]
000000 d6 26 63 cb 86 3c c2 3f 00 79 e7 82 df cd b9 3f
       0.14247212344189703 0.10079762407210424
000010 54 bf c9 b9 77 9d c1 bf f8 30 d8 5b 5d c9 c2 bf
       -0.13761803218539603 -0.14677016243548002
000020 70 37 cd dd 85 d5 b3 3f f0 e9 c7 c2 04 5b 98 3f
       0.07747685113028324 0.023784708393558007
000030 e0 b2 e2 7d 71 b9 c7 bf 68 7f 12 44 71 d6 c8 bf
       -0.18534678122286774 -0.19404426406708386
000040 38 08 f5 96 a9 aa a3 bf 9e ca 2e 1a f4 8b c9 3f
       -0.038411426236521995 0.19958354261833205
000050 ac 89 90 6b bc bf b3 3f 08 6b e0 59 c0 72 b4 3f
       0.07714440942849049 0.07987596697095622
000060 ac 11 6e 9a d3 36 ba 3f b0 c7 cb 1c 8a 8c c0 3f
       0.10239908714544893 0.12928892522864777
000070 20 31 c7 22 3a 86 a5 3f 78 21 fd 10 32 84 a2 3f
       0.042039696450588915 0.036164822172000066
000080 68 1f 9c d1 45 fa 95 3f 16 8f 77 35 a8 64 c1 3f
       0.021462527197427944 0.13588430987066918
000090 05 10 f0 05 68 e2 c2 bf 3c e9 fd 7d b7 e7 bb 3f
       -0.147534373187341 0.10900446725819263
0000a0 54 b4 81 0a d2 07 bb bf ac 15 81 6c 52 f4 c5 bf
       -0.10558808094511224 -0.17151861475046581
0000b0 98 0f ce 31 44 83 b0 3f f4 5b 19 e3 83 fd ae bf
       0.06450296607914507 -0.06052791735844912
0000c0 50 55 6b 0f 39 5a 83 3f c4 ea d8 dd 77 4b b0 3f
       0.009449430258806985 0.06365155378527293
0000d0 40 b8 9e 74 5e aa 9d bf a0 04 43 43 91 7b 70 bf
       -0.028970218532485825 -0.004024093086799102
0000e0 da 21 ff f6 56 b9 bb bf b7 49 ec d7 9c b0 bf bf
       -0.10829680948439294 -0.12378864547307598
0000f0 68 2f b6 f2 1f d4 ac bf 12 58 4b 88 d8 47 c3 bf
       -0.05630588376797513 -0.15063006072040303
000100 6a f7 12 3e d1 b4 be bf 98 01 15 26 22 8f 9b 3f
       -0.11994655385475786 0.026913198065132343
000110 f8 4c db d4 6a f2 a5 bf 64 51 cc 5b b7 30 c4 bf
       -0.04286512230251022 -0.1577367017968171
000120 04 37 30 58 84 95 c3 bf 10 fd dd a9 05 b1 af 3f
       -0.1530003958327414 0.06189744661878127
000130 80 34 a4 aa f0 b1 93 3f b6 d4 37 a5 f2 32 c0 3f
       0.019233475127340416 0.12655480448998951
000140 65 db 8f f5 1b 41 c7 bf 6e a6 fd fb 5d 9a c6 3f
       -0.18167447557763264 0.1765859108375482
000150 6c 46 d3 36 4f 2e a0 bf 08 ef 74 b9 e8 2c b4 3f
       -0.03160331291441029 0.07881025817635756
000160 60 8f 3a 81 20 ef b7 3f 40 93 bf d2 fd 25 67 3f
       0.0934925380229834 0.0028257329449722646
000170 b0 f9 39 6d 11 fc 8b 3f 9c 55 d9 15 a4 2e bf 3f
       0.01366437544424745 0.12180543454572618
000180 4a ce d1 41 98 d7 b6 bf bc 3e 66 01 bf dd be 3f
       -0.08922721487925248 0.12057107719578658
000190 88 9e f9 cb 4a d4 c3 3f fe d3 7f 84 6b 12 c8 3f
       0.15491614303322288 0.1880621335000398
0001a0 d8 8b c2 9a 67 c4 b9 3f ef d1 99 61 88 68 c8 bf
       0.10065314796751978 -0.19069008603732082
0001b0 7a d9 af ef 9c f5 b2 bf 00 d7 f4 ef a6 fc ae 3f
       -0.0740602574513555 0.060521332541993544
0001c0 1d a1 15 ce c2 da c2 bf e2 b5 ca c5 1e 62 c6 bf
       -0.1473010545989916 -0.17486939103893834
0001d0 b8 9f b9 33 d5 89 a1 bf d8 59 e9 ec 55 68 a1 3f
       -0.03425470596704322 0.03399914280878463
0001e0 b4 5b 94 8f 6b 4b c4 bf b8 24 87 de 49 b2 c1 bf
       -0.15855164061278304 -0.13825343480701746
0001f0 a6 9d ce 38 a9 56 c0 3f 85 e1 f8 b3 2c f1 c6 bf
       0.12764468454154815 -0.17923506534294745
000200 d0 aa 51 e6 bc c6 90 3f b0 12 f6 72 bb 5e 97 3f
       0.016383124883229183 0.022822312251735866
000210 1a 45 d9 76 ca 6a c2 bf 40 4e b6 73 bc b9 94 3f
       -0.14388399890098286 0.020239777147777582
000220 94 8c b2 1b da db b0 3f ed 53 17 b3 7a ff b5 bf
       0.0658546750660654 -0.08592955467550185
000230 88 80 5c fc a8 90 ad 3f 54 a6 13 b8 71 1f c6 3f
       0.05774429398138731 0.17283460128901373
000240 88 b4 4b 29 80 82 bd 3f a0 98 f7 0a bd 94 8a 3f
       0.11527253158756612 0.012979008576575801
000250 10 78 20 4f 6c 03 ba 3f 27 15 5c c3 9f c4 bf bf
       0.10161473209197447 -0.12409399528049346
000260 a6 84 c6 51 94 1e c5 3f 00 5b 13 f9 46 89 89 3f
       0.1649957083982702 0.012468866802391343
000270 da 81 26 6f a3 2f b3 bf 2a 01 03 fc 98 85 c0 bf
       -0.07494565452225946 -0.12907707505474636
000280 f7 af 0f cc 3c 0f b4 bf b8 a9 a9 55 0f 01 a9 bf
       -0.0783575056263429 -0.048836211401823204
000290 28 81 a7 80 2b fc ad 3f cc 69 78 fb 53 92 ae bf
       0.0585645288990711 -0.05971014446932407
0002a0 d2 78 5f 29 b9 4d c3 bf 4e a3 41 d4 ad bd c2 3f
       -0.15080942649996715 0.14641354431230486
0002b0 a4 3d d4 9f e6 b7 b8 3f 66 2d d3 0f 64 d6 c5 3f
       0.09655610467984005 0.17060519001675373
0002c0 f4 19 11 3d e4 89 b1 3f 72 cf 64 04 13 2b c6 bf
       0.06851030817879417 -0.17318952288189454
0002d0 ba ae f5 c0 7d 98 ba bf 60 85 80 58 4e 75 ab bf
       -0.10388933144502746 -0.053629349044295394
0002e0 80 39 25 75 6a 34 8a bf a7 ab 58 f2 4f 36 bc bf
       -0.012795287799829635 -0.11020373980197339
0002f0 98 48 cd ac 96 b8 a5 bf e6 73 82 19 26 ed c2 3f
       -0.04242392405889567 0.14786220784745224
000300 08 ee 57 d4 37 0f c7 bf 94 d4 84 37 ed 2f af bf
       -0.1801519190629366 -0.0609125261566216
000310 17 91 9f 2e d5 63 c6 bf ec a2 1d 04 8f ed c6 bf
       -0.17492165352371877 -0.17912471486058423
000320 17 d7 10 3b 90 3a bf bf 80 19 0f 6f bc aa 69 bf
       -0.1219873565867967 -0.0031331711147430386
000330 40 f9 63 bd 67 b2 aa 3f 1a 57 4d 8a a9 a7 c5 3f
       0.052142373913727 0.1691791463187478
000340 e8 58 6d d4 ca 3f c5 bf f4 15 1d 39 dd 6b c3 bf
       -0.16600928661745873 -0.15172925270796578
000350 50 e7 ae 9b 79 f1 9a 3f 86 1b 50 8b 0e 77 c0 3f
       0.02631177914347599 0.12863332559956236
000360 d6 8b 2e 6d e2 40 c7 3f 54 f6 4d 1c 8d 40 a9 3f
       0.1816676171411859 0.04932061167253879
000370 68 5e 0a 63 2e 2d ab bf 1f 3d 5f 8c 93 26 c8 bf
       -0.05307908019056812 -0.18867725710013247
000380 5a 53 86 64 d4 dd c3 bf 00 fc 6a 11 29 82 97 3f
       -0.15520720394547532 0.022957460105995864
000390 c0 e6 ab ff e7 d5 7e 3f da a1 ee 97 18 3e c8 bf
       0.007528215641963321 -0.1893950216156231
0003a0 e7 b6 31 06 62 ab b8 bf 3f 3c 19 7b af 69 c8 bf
       -0.09636509562707439 -0.19072526465103753
0003b0 28 b9 bf 53 b4 48 9e 3f 58 0b 4d 03 3e 10 c9 bf
       0.029574220286968572 -0.1958081737630788
0003c0 94 49 a0 fb 43 84 a3 3f 37 1c cc 05 a7 aa b7 bf
       0.03811848112686103 -0.09244769946609287
0003d0 92 b4 3e 4d 91 7c c2 bf 50 93 18 68 af 4d ae 3f
       -0.14442650100446436 0.05918644090369318
0003e0 fc f9 bf 03 8f 88 b3 3f 30 a1 ea 59 2b 84 92 bf
       0.07630246964979642 -0.01808231102282426
0003f0 1f bd 1d e7 af 42 c5 bf 50 95 bb 64 9a ce ad 3f
       -0.16609762940377323 0.058216881557920375
000400 30 1a 2d 4d 63 35 bd bf 68 9f 09 bf 61 32 91 bf
       -0.11409588464912512 -0.016793753895768232
000410 54 f5 30 c0 e6 4e c3 3f 58 db 37 28 e0 2e ba 3f
       0.1508453787263685 0.10227776510133191
000420 b8 67 8a 68 9c 5d ab 3f fc de 29 36 99 90 b0 3f
       0.053448570023831576 0.06470639774658687
000430 ee 16 12 c9 ed 52 c5 3f 37 d8 2d f7 93 a7 c1 bf
       0.16659328763869702 -0.13792657441416775
000440 e5 6f e5 d5 f9 1f c0 bf a8 a4 a7 98 3f be a3 3f
       -0.12597582763817097 0.03856085527861214
000450 60 b7 64 6a bd 9e 8d 3f 10 e6 05 e0 41 c2 bb 3f
       0.01446292859017334 0.1084328815394644
000460 00 b9 5f 61 10 29 c8 3f 6d e5 07 6f 88 55 b4 bf
       0.18875317339502118 -0.07943012915338495
000470 0c 1a 05 1d 6c 26 c3 bf d0 9a 5c 2e ae eb b5 3f
       -0.14961005608547884 0.08562744743231154
000480 a7 a8 76 1d 7a b7 ba bf 34 fe 10 1d af ef c7 bf
       -0.10436213702510831 -0.18700207633263377
000490 7a 8b f0 1a 28 8a b1 bf e4 3c cd 5c 86 11 c0 3f
       -0.068514353348787 0.12553481608708872
0004a0 44 cc f7 c2 b3 d4 b5 3f b6 2f 50 ed 5f 30 c8 3f
       0.08527682790718055 0.18897627914009058
0004b0 a0 d7 81 84 d1 3c b6 bf 6d 6c e5 4a f1 44 c7 bf
       -0.08686551556624389 -0.18179145962753598
0004c0 30 d2 b3 76 1d 0c 90 3f d2 8b ae 93 06 a7 c3 3f
       0.01567121541025268 0.15353471957231918
0004d0 00 0f d0 b1 82 8c 7e 3f 48 ba 0d 59 1c 0a ac 3f
       0.007458220029551432 0.054764638777545616
0004e0 30 5e f5 57 1f 8f 93 bf 80 73 6b 1e 46 db ba 3f
       -0.01910065626483809 0.10490835421246736
0004f0 f2 4a 14 26 6d 0b c0 3f 3e 2c ae ad 7d ee c4 3f
       0.12534870490397726 0.16352816563116507
000500 c8 e7 b5 3d cf 9a b8 3f 82 d2 a1 a0 42 f6 c0 3f
       0.09611220604520476 0.13251526683201936
000510 c0 86 f8 62 89 95 be 3f 14 d0 46 b6 6c ac a2 bf
       0.11946924845008322 -0.03647174572998338
000520 de df 83 27 c1 5d c7 3f 7f 76 db 29 9f 4c c9 bf
       0.1825486605591768 -0.197650809705852
000530 a0 81 9d ca cb 11 73 bf 9e b0 f4 8e 34 04 c9 3f
       -0.0046556435207495694 0.1954408357645478
000540 40 e6 fb 7c 4d a8 92 3f 14 ad 61 d1 e3 a7 c6 3f
       0.018220148805062175 0.17699859355648384
000550 c8 42 33 5f 78 db ae bf 97 3b 29 e9 4b 1a c5 bf
       -0.06026817476379659 -0.16486500630204823
000560 0d 3f 98 56 e3 0b c6 bf b8 f2 4a 5c bc 08 a9 bf
       -0.17223779419190813 -0.048894773737150954
000570 f6 92 a1 ee 01 b0 b1 bf 0a bf b4 68 74 a5 b3 bf
       -0.06909191204028872 -0.07674338871288114
000580 80 32 c8 a1 50 ad 9b bf 4d 13 79 50 50 af c3 bf
       -0.027028331636801628 -0.1537876503881769
000590 70 ea 4c 98 dc f4 c3 3f cc 2e 7f 94 e4 2f ad bf
       0.15591008602662582 -0.057006018759776816
0005a0 ed 46 00 ca 13 79 c6 bf 54 78 8d d1 c2 2f a6 3f
       -0.17556998599371046 0.04333313758864735
0005b0 94 fd ef ca 01 a3 bf bf 4a b8 34 35 fa 74 bf bf
       -0.12358103947189242 -0.12287868308041641
0005c0 e8 cc 77 7f 09 09 98 3f 5a c5 5d cf 0c 3a c4 3f
       0.023471973805453766 0.15802154660517936
0005d0 dd 1f 44 38 67 3f c7 bf c4 72 23 f9 a9 e9 b4 3f
       -0.1816224121796485 0.08169042904359985
0005e0 97 d8 83 c2 ae 1b c5 bf d0 17 26 bf dd b4 9e bf
       -0.16490730760387315 -0.029986824790760924
0005f0 80 d1 5d e5 3f f3 96 3f 60 19 b7 4b 8a 33 c0 bf
       0.022412298559588262 -0.12657288262398492
000600 c4 c2 d7 a2 52 3b bc 3f c6 93 5b a4 6b 13 c2 3f
       0.11028019405035666 0.14121766591338608
000610 b8 08 1b be 6b a0 b7 3f f0 55 57 98 b5 40 b2 bf
       0.0922915782094006 -0.07129988641039353
000620 54 08 1a a6 5e 62 a2 bf 10 d0 28 93 c9 07 ab 3f
       -0.03590675141914859 0.05279378816013047
000630 78 d2 81 c4 9b 54 b7 3f f2 1a fa 09 c6 bc c5 3f
       0.0911347727540689 0.16982341277272145
000640 2d 71 4a d3 15 11 ba bf 22 d9 d0 cc ff f8 c2 bf
       -0.10182320030657328 -0.14822385311863068
000650 84 03 32 a1 d6 01 bd bf 5a d8 c3 df 18 17 c6 3f
       -0.11330930171426529 0.1725798695185315
000660 48 31 49 f3 d3 47 c2 3f d0 0d 6f 62 0d d3 9f 3f
       0.14281701449579942 0.03107853806774391
000670 d0 39 64 d9 7b 70 85 bf 44 d4 8c a8 66 50 b3 bf
       -0.010468452045213988 -0.0754455720423986
000680 dd 39 54 1a 37 f4 b7 bf cc fe 57 19 99 a0 b7 3f
       -0.09357017891691251 0.09229428166144799
000690 32 ad 87 82 f9 3c c5 bf 10 25 27 e2 a9 9e 98 3f
       -0.1659232985833597 0.024042753628042368
0006a0 64 63 af a4 8b 33 b1 bf 7e fb 7c 5c 40 c7 c2 3f
       -0.06719277163155152 0.14670567050958633
0006b0 58 53 8a 6a 32 c4 9b 3f b0 60 41 b8 fd 5a 8f bf
       0.02711561942358584 -0.015310270486381533
0006c0 ac b8 39 5b 4e af a0 bf 86 e8 30 e2 ef 6d c0 3f
       -0.03258747924415792 0.12835501236424224
0006d0 60 0e b8 62 a8 17 b9 3f 82 40 82 1e 98 33 c5 bf
       0.09801723871356094 -0.16563703050315232
0006e0 5c 41 38 05 95 a9 aa bf dd 9c 0b ad 34 e0 bc bf
       -0.05207505882947558 -0.1127961084817914
0006f0 3d 45 f1 df 84 3a c3 bf cd 50 79 fc 25 0f bf bf
       -0.1502233594388062 -0.12132489599145231
000700 20 22 40 64 bf 9c 8d 3f 9c 2c cb 07 ac d3 b9 3f
       0.01445912861528692 0.10088610830568928
000710 40 e6 28 59 1b de c1 bf 14 ad 93 0a a2 3b b4 bf
       -0.13959066251281804 -0.07903492696975817
000720 38 d6 fc 18 27 4a b3 3f 16 46 5e 70 58 d8 b2 bf
       0.07535023078966041 -0.07361366980901382
000730 c8 12 3d c6 ea 26 b8 3f 30 08 31 57 4f 6d 89 bf
       0.09434382762726579 -0.01241552338445126
000740 97 a7 43 32 6f 9a ba bf 00 5e 8c e1 35 58 c7 bf
       -0.1039189813342588 -0.18237946999646226
000750 2d ad 16 86 cc 8c bd bf e0 20 06 29 5b 42 bb bf
       -0.11542967103621456 -0.10648126365242971
000760 c0 6a cf 32 9a e2 62 3f 36 97 4f 06 d4 84 c8 3f
       0.002305318039799914 0.19155359562062707
000770 b0 25 e5 84 96 1f 85 bf a8 68 c2 e8 91 0d c5 3f
       -0.010314155512463369 0.1644766222496561
000780 08 ab 02 8d 8b 8d a9 3f 00 5b 9d 79 fc 80 78 bf
       0.049908028567491824 -0.005982385855381578
000790 16 f6 a5 5d 0a 1d c8 3f f8 f9 dc f2 40 48 b5 3f
       0.18838624546690202 0.08313375405575829
0007a0 fa f6 3a 05 0b ab c6 3f 3a 12 68 5d 9b da ba bf
       0.17709481959712275 -0.10489817648346725
0007b0 62 a7 d5 01 e9 ae c0 bf d4 e3 57 2c 63 90 ba bf
       -0.1303378352125107 -0.10376567680931653
0007c0 8c 7a 0f 20 8a f7 c2 bf 86 6c a9 f9 08 ca c5 3f
       -0.1481793076081498 0.17022812071340726
0007d0 b0 7b 9a e9 a7 1f ae 3f 6e e5 84 ac 9f 20 b3 bf
       0.058835265413328286 -0.0747165485562584
0007e0 b4 0c 96 89 d6 6d a6 3f c0 f2 d1 f9 78 48 74 3f
       0.043806747718030975 0.004951927720978133
0007f0 96 cf ad 61 41 c6 c3 3f aa a3 97 8c bf b2 b1 bf
       0.15448777455787582 -0.06913373167448236
